Pytorch_Basics/HousePrice.pt (torch, 43618 bytes, 21 tensors)

weight f4 [15, 8]
0	0x3c14f39d	0.009091285
1	0xbc2f1514	-0.010686178
2	0x3bd82cc9	0.0065971357
3	0xbd16ec33	-0.03684635
4	0x3c8e97e9	0.01740642
5	0x3d406521	0.046971444
6	0x3dc2fe7f	0.095211975
7	0xbd29995d	-0.041406024
8	0xbe2586e8	-0.16164744
9	0x3f0dbe15	0.5536817
10	0x3daf2129	0.08551247
11	0xbeb6a418	-0.3567207
12	0x3d1ee27c	0.03879021
13	0x3dde58bb	0.10856768
14	0xbe1360dd	-0.14392419
15	0x3e88d3e8	0.26724172
16	0xbe83523a	-0.2564867
17	0xbf8d74fc	-1.1051326
18	0x3cfcc8ce	0.03085747
19	0xbeb8bfbf	-0.3608379
20	0xbdb8d114	-0.090242535
21	0xbf4b8c23	-0.79510707
22	0x3ec84dd4	0.39121878
23	0x3d5fcf43	0.05464102
24	0xbfc9fd05	-1.578034
25	0xbf200f2d	-0.62523156
26	0xbf109219	-0.5647293
27	0x3f0d46d4	0.551862
28	0xbd85fd88	-0.06542498
29	0xbe2d67a0	-0.16934061
30	0x3f19f932	0.60145867
31	0xbf2b7ead	-0.66990167
32	0x3f982699	1.1886779
33	0xbc6c0594	-0.014405627
34	0xbf1c8076	-0.61133516
35	0xbf1b7878	-0.60730696
36	0xbd4dd81b	-0.050254922
37	0xbf377743	-0.71666354
38	0x3f87d470	1.0611706
39	0xbf671e60	-0.90280724
40	0x3d44adcb	0.048017304
41	0xbd35e12c	-0.044404194
42	0xbd764707	-0.06012633
43	0xba85f60d	-0.0010220424
44	0x3deae316	0.114690945
45	0x3dd5474a	0.10413988
46	0x3d35ff14	0.044432715
47	0xbd870907	-0.06593519
48	0xbd46b45a	-0.04851184
49	0xbfda276b	-1.704328
50	0x3c959d79	0.018263565
51	0x40092eaf	2.1434743
52	0xbe16bfab	-0.14721553
53	0xbd8ed3c0	-0.06973982
54	0x3cf3424c	0.029694699
55	0x3dfce4a5	0.12348298
56	0xbe0e9bb5	-0.13926585
57	0x3db2d11c	0.08731291
58	0x3e4633bf	0.19355677
59	0xbe3af7e7	-0.1825863
60	0xbe05a778	-0.13052166
61	0xbfc857a8	-1.565175
62	0xbe1e7e3a	-0.15477839
63	0x3e43cbfd	0.19120784
64	0xbd26f53c	-0.040761217
65	0x3df8db7f	0.121512406
66	0xbd9c9c23	-0.07646968
67	0xbdfd987e	-0.12382601
68	0xbe7525d1	-0.23940207
69	0x3dc005ac	0.09376082
70	0xbc7b18b8	-0.015325718
71	0x3dba871f	0.091078036
72	0xbe863dea	-0.26219112
73	0xbefb432e	-0.49074692
74	0xbef99182	-0.48743826
75	0x3eb93e63	0.3618041
76	0xbf082e06	-0.53195226
77	0x3e4411b1	0.19147374
78	0x3f621e09	0.8832708
79	0xbf4915c5	-0.7854884
80	0x40206580	2.506195
81	0x3fcc65a2	1.5968516
82	0xc08f8892	-4.485421
83	0x3d0f5f4d	0.035002995
84	0x3ee600d4	0.44922507
85	0x3f6fd731	0.9368773
86	0x407d20fb	3.955138
87	0xc095fe3c	-4.6872845
88	0xbe5f1077	-0.21783625
89	0xbe1e722b	-0.15473239
90	0x3e186055	0.14880498
91	0x3de6a8f1	0.11262692
92	0xbf4748f7	-0.7784571
93	0xbeb73d7a	-0.3578909
94	0xbe2d7ff4	-0.16943341
95	0x3e4efc49	0.20213427
96	0x3f505a45	0.8138774
97	0xbd5b9017	-0.05360421
98	0xbf2eb891	-0.68250376
99	0xbea45038	-0.32092452
100	0x3dbbbb7a	0.09166618
101	0xbdc29ff3	-0.09503164
102	0x3eef2866	0.4671051
103	0xbe8d5ff6	-0.27612275
104	0x3d85311d	0.06503508
105	0x3f8325cb	1.0245908
106	0x3dff6975	0.12471286
107	0xbc801f76	-0.015640002
108	0x3eb55d0c	0.35422552
109	0x3dd6affa	0.104827836
110	0x3bbf4da3	0.0058381124
111	0xbda0315f	-0.07821917
112	0x3ff3f47e	1.9058988
113	0xbd9526c8	-0.072827876
114	0xc0260365	-2.5939572
115	0xbfe2b048	-1.7710047
116	0x3e9ae224	0.30250657
117	0x3cf1cbd1	0.029516133
118	0x3fecc121	1.8496438
119	0xbfe1020d	-1.7578751

weight f4 [5, 3]
0	0x4058f88a	3.3901696
1	0x3f989881	1.192154
2	0x3f9242ec	1.1426673
3	0xbe49ab8f	-0.1969435
4	0xbf550a09	-0.8321844
5	0xbd01dade	-0.03170287
6	0xbeafb181	-0.34315112
7	0x3ebe0037	0.3710954
8	0x3f1d95d8	0.6155677
9	0xbc33ec46	-0.010981625
10	0xbbddf89c	-0.0067740213
11	0x3c8c7776	0.017146807
12	0x3f2de2e0	0.6792431
13	0x3df6a27b	0.120427094
14	0xbf84f184	-1.0386205

weight f4 [2, 1]
0	0x3fee098a	1.8596661
1	0xbc354e80	-0.011066079

weight f4 [4, 2]
0	0x3dd64e70	0.104641795
1	0xbe13874b	-0.14407079
2	0x3e50d7e7	0.2039486
3	0xbe1fd3d3	-0.15608148
4	0xc01e3359	-2.471884
5	0xbebe37da	-0.37151986
6	0xbf00e3fe	-0.5034789
7	0x3f03775c	0.51354

weight f4 [5]
0	0x3f08d52a	0.5345026
1	0x3efe6601	0.49687198
2	0x3fa0da66	1.256665
3	0x3f8135eb	1.009458
4	0x3ffbf9e4	1.9685636

bias f4 [5]
0	0x3e98bd7d	0.29832068
1	0xbf51da7c	-0.81974006
2	0xbfc1357b	-1.5094446
3	0xbf1b8681	-0.6075211
4	0x40080c38	2.1257458

running_mean f4 [5]
0	0x428c2962	70.080826
1	0x461be78d	9977.888
2	0x4490c2c0	1158.0859
3	0x43abcb25	343.58707
4	0x42558259	53.377293

running_var f4 [5]
0	0x4410f614	579.845
1	0x4c775205	6.4833556e+07
2	0x480f28e8	146595.62
3	0x48387193	188870.3
4	0x447a639a	1001.5563

weight f4 [100, 19]
0	0xbf434dbb	-0.7629048
1	0x3e83f83d	0.25775328
2	0x3f044bb5	0.5167802
3	0x3feb5d20	1.8387794
4	0x3f9141e9	1.1348239
5	0x3e4f8321	0.20264865
6	0xbf1edec7	-0.6205868
7	0x3f66a7f5	0.9010003
8	0xbd1d6d15	-0.038434107
9	0x3e3847b6	0.17996106
10	0x3f0aacf3	0.5417015
11	0x3e429ad0	0.19004369
12	0xbf1a3b4e	-0.6024674
13	0x3f03d7d0	0.5150118
14	0xbf321406	-0.69561803
15	0x3ef7b4c1	0.48380092
16	0x3f935438	1.1510077
17	0x3f217e3f	0.6308326
18	0xbfc490c2	-1.5356677
19	0x3ec2f76a	0.38079387
20	0xbd1735ff	-0.03691673
21	0xbf271e3d	-0.65280515
22	0xbd1aefd8	-0.03782639
23	0x3fcf74a1	1.6207467
24	0x3ea6ce20	0.32579136
25	0x3eb39e3c	0.3508166
26	0xbf3d0113	-0.73829764
27	0x3fcf02e6	1.617276
28	0x3ff431ad	1.907766
29	0xbfaea150	-1.3642979
30	0xbe191ac5	-0.14951618
31	0xbfc340ea	-1.5254185
32	0x3f68d705	0.90953094
33	0xc05d04a0	-3.4534073
34	0x3f48a721	0.7838002
35	0xbf7eb909	-0.9950109
36	0xc005384e	-2.0815616
37	0x3ee7c677	0.45268604
38	0xbdefdc0a	-0.11711891
39	0xbeb5b84c	-0.3549217
40	0x3e9658d0	0.29364634
41	0x3e7e8ee9	0.24859203
42	0x3eb25d31	0.34836724
43	0xbfc1d2bf	-1.514244
44	0xbf43d17f	-0.7649154
45	0x3f1714cf	0.59016126
46	0x3dec21ab	0.11529859
47	0x3f89237d	1.0713955
48	0x3ec29a06	0.38008136
49	0x3fd26c84	1.6439366
50	0x3fac4b3f	1.3460463
51	0xbfbd2511	-1.4776937
52	0xc04264b5	-3.0373967
53	0x3f771c40	0.9652748
54	0xc015e9e9	-2.3424017
55	0xbf94379a	-1.1579468
56	0xbdbb4a22	-0.09144999
57	0x3e02580f	0.12728904
58	0x3ec047e9	0.37554863
59	0xbd6b910d	-0.057511378
60	0xbe9dab2e	-0.30794662
61	0x3f0039d5	0.50088245
62	0x3e8b81be	0.27247423
63	0xbdd8d6d1	-0.10587848
64	0xbc78d124	-0.015186582
65	0x3e6e3f32	0.23266295
66	0x3f0181df	0.5058879
67	0xbe9d84a4	-0.3076526
68	0x3ea3dcb0	0.3200431
69	0xbf042a09	-0.5162664
70	0x3e8dd8ad	0.27704373
71	0x3f28de52	0.65964234
72	0xc095e732	-4.684472
73	0xbf8b9a55	-1.0906473
74	0xbfa575d2	-1.2926581
75	0x3f74ae05	0.9557803
76	0x3d05acbd	0.03263544
77	0x3f212f6e	0.62962997
78	0xbf78c831	-0.9718047
79	0xbdbefb23	-0.09325244
80	0x3ef6fc7b	0.48239502
81	0x3f86dd2d	1.0536247
82	0x3f44e889	0.7691732
83	0xbe039199	-0.1284851
84	0x3fdbd415	1.7174097
85	0x3f089351	0.53349787
86	0xbfadb3b9	-1.3570472
87	0xbea413d7	-0.32046387
88	0x3db43805	0.087997474
89	0x3f0d1bdc	0.55120635
90	0x3f37e35b	0.7183129
91	0xbf907792	-1.128649
92	0xbfb7b668	-1.4352541
93	0xc0200822	-2.5004964
94	0x3eda79a5	0.42670932
95	0xbe73655f	-0.23769139
96	0x3ea06946	0.31330317
97	0x3db70fff	0.08938598
98	0xbdabf41d	-0.0839617
99	0xbe39d15b	-0.18146269
100	0xbe7a0772	-0.24416903
101	0xbe3bd6b9	-0.18343629
102	0x3eb6677c	0.35625827
103	0x3bb89013	0.0056324094
104	0x3e3bb643	0.18331246
105	0xbd922303	-0.07135584
106	0xbe94b505	-0.29044357
107	0x3d9515e2	0.072795644
108	0xbcbf7347	-0.023370398
109	0xbfa0cbbc	-1.2562175
110	0xc056ab77	-3.3542154
111	0x3f61bd5f	0.8817958
112	0x3f9973bf	1.1988448
113	0xbee4956d	-0.44645253
114	0xbe8363eb	-0.2566217
115	0x3f2351c4	0.6379664
116	0x3f160a7c	0.5860975
117	0xbf78b40c	-0.9714973
118	0xbf09d2ce	-0.5383729
119	0xbfb54a87	-1.4163369
120	0xbf1e9f98	-0.6196227
121	0x3f32606a	0.69678366
122	0x3ef6d5b5	0.4820992
123	0x3f850399	1.0391723
124	0xbde17425	-0.11008481
125	0x3f7bdf80	0.9838791
126	0x3fa476b0	1.284872
127	0xbf5b3ef3	-0.8564293
128	0x3f9a1a0c	1.2039199
129	0x3edd57c5	0.43231025
130	0xc0209693	-2.5091903
131	0xbfd0e921	-1.6321145
132	0xbe711fc6	-0.23547277
133	0xbe634840	-0.2219553
134	0xbd03cffb	-0.032180768
135	0x3dca3b76	0.098746225
136	0x3e1b4c60	0.15165854
137	0xbed249cd	-0.4107193
138	0xbdfecb66	-0.12441139
139	0xbe88770d	-0.2665333
140	0x3ea75f68	0.32689977
141	0x3d4ff3de	0.05076968
142	0x3a464ec0	0.0007564835
143	0xbf3b1ab8	-0.73087645
144	0x3e966f50	0.293818
145	0xbea91fb7	-0.3303201
146	0x3f4b30eb	0.7937152
147	0x3ebf28d0	0.37335825
148	0x3f250c9c	0.64472365
149	0x3fca6862	1.5813105
150	0x3f63595a	0.88808215
151	0xc092d1e6	-4.5881224
152	0x3f535102	0.82545483
153	0x3f3bef7e	0.7341231
154	0xbebeb1d3	-0.37245044
155	0x3ccdd535	0.02512608
156	0x3efe29c1	0.4964123
157	0x3f48f710	0.7850199
158	0x3ed3630a	0.41286498
159	0xbf149e8e	-0.58054435
160	0x3c9b063e	0.018923875
161	0xbd91aa1b	-0.07112523
162	0x3d841ea6	0.06451158
163	0x3dd09af3	0.10185804
164	0xbf5e10ab	-0.86744183
165	0x3ebdf961	0.37104324
166	0x3f8c98dc	1.0984149
167	0xc0804e61	-4.0095677
168	0xbf8e8632	-1.1134703
169	0xbfcf0580	-1.6173553
170	0x3f403d92	0.7509395
171	0xbee2b56e	-0.44279045
172	0x3d2afaa0	0.04174292
173	0x3f9c2c44	1.2201009
174	0x3f8fc368	1.1231508
175	0x3fada3ba	1.356559
176	0x3e96e99d	0.29475108
177	0xbf48a6cb	-0.78379506
178	0x3f354235	0.7080415
179	0xbe03fb61	-0.12888862
180	0x3f4553ac	0.770808
181	0x3ead7fb6	0.33886498
182	0x3e838683	0.25688562
183	0xbf43cb1f	-0.76481813
184	0x3f078924	0.52943635
185	0xbf778bcf	-0.96697706
186	0x3e268ad4	0.16263896
187	0x3f95c584	1.1700902
188	0x3ee77307	0.45204946
189	0xbf806f86	-1.0034034
190	0xbf0a909e	-0.5412692
191	0xc037386f	-2.8628194
192	0x3fa480cd	1.2851807
193	0xbf2a42d6	-0.66508234
194	0x3fa81033	1.3129944
195	0x3e295381	0.1653576
196	0xbf768bba	-0.96306956
197	0x3f5a9f35	0.8539918
198	0x3e35477c	0.1770305
199	0x3eabd204	0.33558667
200	0xbe7518df	-0.23935269
201	0x3d4657c8	0.04842356
202	0xbf6762b6	-0.90384996
203	0x3f25b22c	0.64724994
204	0x3ed7f10b	0.4217609
205	0x3efdad91	0.49546483
206	0x3f88049b	1.0626405
207	0x3e88b8ef	0.26703593
208	0xbfbfecb4	-1.4994111
209	0xbf8c226b	-1.0948004
210	0x3fb7b050	1.4350681
211	0x3f0490f0	0.5178366
212	0xbf9343ac	-1.1505027
213	0xbe92f3b0	-0.28701544
214	0xbf3773da	-0.7166115
215	0xbfdcf679	-1.7262717
216	0x3f1f9b0a	0.62345946
217	0xbfaa5aec	-1.3308997
218	0x3f24e0cc	0.6440551
219	0x40042f51	2.065388
220	0xbf0fc2b7	-0.56156486
221	0xbd88f9d4	-0.06688276
222	0x3eb0f073	0.34558448
223	0x3f13a7fa	0.57678187
224	0xc0148430	-2.320568
225	0x4003beac	2.0585127
226	0x3f712c1e	0.9420794
227	0xbe1046ca	-0.14089504
228	0xbd413a60	-0.04717481
229	0x3e06f146	0.13177976
230	0xbdf02393	-0.11725535
231	0xbd7c9407	-0.061664607
232	0xbdea5ae8	-0.1144312
233	0xbf129c52	-0.57269776
234	0xbcc09e06	-0.023512851
235	0xbe08b39b	-0.13349764
236	0x3f49a5fe	0.7876891
237	0x3ec33026	0.38122672
238	0xbf282be4	-0.6569197
239	0x3fb69092	1.4262869
240	0x3ec15861	0.3776274
241	0xbe86506d	-0.26233235
242	0x3f5af0ac	0.85523486
243	0xc00f73a7	-2.2414339
244	0xc00ae071	-2.1699488
245	0xc000ef87	-2.0146196
246	0x3f577b2d	0.84172326
247	0x3e8c2a0f	0.27375838
248	0x3ebf3898	0.37347865
249	0xbe994cb7	-0.2994134
250	0xbe07af53	-0.13250475
251	0x3d954b3a	0.07289739
252	0xbc9f782e	-0.019466486
253	0xbe66ba03	-0.22531895
254	0x3d52019b	0.051271062
255	0x3e91b894	0.28461134

bias f4 [100]
0	0x40303ba6	2.7536407
1	0x3ec73f5a	0.3891552
2	0x3e8fb221	0.2806559
3	0x4087f2bd	4.248381
4	0xbf9aa057	-1.2080182
5	0xc019f383	-2.4054878
6	0xbfa022c5	-1.2510611
7	0xbe6f0339	-0.23341073
8	0x4051cddc	3.2781897
9	0x4031a7bb	2.7758625
10	0x400d158e	2.2044406
11	0xc03796aa	-2.8685708
12	0x3fb5c2ea	1.4200108
13	0x40844cba	4.134366
14	0x408e350a	4.4439745
15	0x3f21d0b0	0.63209057
16	0xc01117e4	-2.2670832
17	0xc003d205	-2.0596936
18	0xc0136d99	-2.3035643
19	0xbf52b04e	-0.8230027
20	0x403f36d2	2.987721
21	0xbf6982d6	-0.91215265
22	0x3eb16f0c	0.34655035
23	0xc01ad507	-2.4192522
24	0x404eec7f	3.2331846
25	0xc03837ce	-2.878406
26	0xbff28a5b	-1.8948473
27	0x3e877221	0.2645426
28	0x3f35a70b	0.7095801
29	0xc0348e22	-2.821175
30	0x4082f3f0	4.0922775
31	0xbfcbb367	-1.5914124
32	0x40e0a41f	7.0200343
33	0x40c6e9fe	6.2160635
34	0x402f6461	2.7405016
35	0xc0205c0c	-2.505618
36	0xc0017dc8	-2.023302
37	0x40cc871f	6.3914943
38	0x3f200f0a	0.6252295
39	0x404e0675	3.219144
40	0x401ad296	2.4191031
41	0x406553f0	3.5832481
42	0xbfbb0854	-1.4611917
43	0x40c0f176	6.029475
44	0x3f566c49	0.8375898
45	0x3fda07c8	1.7033625
46	0x40be1bd1	5.9408956
47	0x40c953d3	6.2914824
48	0x406e7911	3.7261393
49	0x405a5a79	3.411772
50	0x3f7dcbe5	0.99139243
51	0xbff9d186	-1.9517066
52	0xbf1afa1d	-0.6053789
53	0x406c8b47	3.6960008
54	0x4081a038	4.050808
55	0x40023ce5	2.0349667
56	0xc0acf531	-5.4049306
57	0x40254dab	2.5828655
58	0xbf61e842	-0.8824502
59	0xbcfdb02c	-0.030967794
60	0x40d70f03	6.7205825
61	0x406c99b6	3.6968818
62	0xbfce9c2f	-1.6141413
63	0xbfa4cf79	-1.2875816
64	0xc087a88d	-4.239325
65	0x40d7e4ca	6.7466784
66	0x3f15a1a6	0.5844978
67	0x3fa8bc8c	1.318254
68	0x3fccb37b	1.5992273
69	0x4081e171	4.0587697
70	0x4028367d	2.6283257
71	0x40c44f56	6.1346846
72	0xbff4df51	-1.9130651
73	0x406cb4d0	3.698536
74	0xbfcb6ecd	-1.5893189
75	0x40483aaf	3.1285818
76	0x40d7a129	6.738423
77	0xc05c94e0	-3.4465866
78	0xc00b03d3	-2.1721084
79	0xbeff9ea3	-0.49925718
80	0xc00bdda5	-2.185403
81	0xbf9d3550	-1.2281895
82	0xbffdb461	-1.9820672
83	0x402903db	2.6408603
84	0xbf397137	-0.7243838
85	0x3f072deb	0.5280444
86	0x3f435470	0.76300716
87	0x40ccfa45	6.4055505
88	0x3faff73f	1.3747329
89	0x4084863a	4.141385
90	0x4032399a	2.7847657
91	0x40cf2924	6.473772
92	0xc0121270	-2.2823753
93	0xbfd6c075	-1.6777483
94	0xbf2fd014	-0.6867688
95	0x3f2be252	0.6714221
96	0x40b6c170	5.711113
97	0xc081aeca	-4.0525866
98	0xc003afd5	-2.057607
99	0x4083de8e	4.1209173

weight f4 [100]
0	0x3e8a9408	0.27066064
1	0x3edc3071	0.43005708
2	0x3e965f91	0.29369786
3	0x3e6899d2	0.22714928
4	0x3e8c6a69	0.27424935
5	0x3eb383a2	0.35061365
6	0x3e89224c	0.2678398
7	0x3f427c8b	0.7597129
8	0x3e5e530b	0.21711366
9	0x3e89e443	0.26931962
10	0x3e6490ba	0.22320834
11	0x3ed96101	0.4245682
12	0x3e8696bc	0.26286876
13	0x3e2ecfdd	0.17071481
14	0x3e84b877	0.25921986
15	0x3ea3315e	0.31873602
16	0xbf23a603	-0.6392519
17	0x3f51ef7f	0.8200607
18	0x3eafd2b6	0.34340447
19	0xbece3f87	-0.40282843
20	0x3e4cf3c5	0.20014866
21	0x3e8a770a	0.27043945
22	0x3ea4a9f1	0.32160905
23	0x3f55688d	0.83362657
24	0x3e7480fa	0.23877326
25	0xbef49727	-0.4777157
26	0x3e868f17	0.26281044
27	0x3f0e4fad	0.55590326
28	0xbe9c0c4c	-0.30478132
29	0x3eb7b97f	0.3588371
30	0x3e4337e7	0.19064294
31	0x3bc2c12f	0.0059434394
32	0x3e5849ad	0.21121855
33	0x3e523fb9	0.20532121
34	0x3ec1dffa	0.37866193
35	0x3ea40482	0.3203469
36	0x3e5256ff	0.20540999
37	0x3eb9385d	0.36175814
38	0x3e9e4697	0.3091323
39	0x3e945565	0.289714
40	0x3e7270b7	0.2367581
41	0x3e5abbb2	0.21360663
42	0x3dd1b7b9	0.102401204
43	0xbe5932ec	-0.21210831
44	0x3ebf0349	0.37307194
45	0x3ec40e07	0.38291952
46	0x3e7c58bd	0.24643226
47	0x3e86ae54	0.26304877
48	0x3e4da6a6	0.20083103
49	0x3e4cfa2b	0.20017307
50	0x3ebf1e85	0.37327972
51	0x40199ffc	2.4003897
52	0x3e7080c1	0.23486616
53	0x3e77ca81	0.24198343
54	0x3e5528ee	0.20816395
55	0x3e79989f	0.24374627
56	0x3e80f592	0.25187355
57	0x3eb632e3	0.35585698
58	0x3e74813e	0.23877427
59	0x3f69172e	0.91050994
60	0x3e8d4c44	0.2759725
61	0x3e68dd32	0.2274063
62	0x3f54071c	0.8282335
63	0x3da8f69a	0.082501605
64	0x3ed25417	0.4107978
65	0xbe692bcc	-0.22770613
66	0x3ea90aee	0.3301615
67	0x3e6a8d75	0.22905524
68	0x3e794ff2	0.24346903
69	0x3e7a780b	0.24459855
70	0x3e36f306	0.17866144
71	0x3e4b3f07	0.19848262
72	0x3faf5545	1.3697897
73	0x3e42b166	0.19012985
74	0x3ffc211e	1.9697607
75	0x3e7f45be	0.24928948
76	0x3e88bfde	0.26708883
77	0x3e8e87be	0.27837938
78	0x3ee09a83	0.43867883
79	0x3eb40137	0.35157177
80	0x3eff5b36	0.49874276
81	0x3f2eb8a5	0.68250495
82	0x3f4a81ff	0.7910461
83	0x3ea05a00	0.31318665
84	0x3e96a169	0.2942002
85	0x3ea61401	0.32437137
86	0x3ef56cbb	0.47934517
87	0x3ea2f503	0.31827554
88	0x3efe25df	0.49638268
89	0x3e3ee715	0.18642838
90	0xbe5d46a3	-0.21608977
91	0x3e945b9c	0.28976142
92	0x3cce9095	0.025215426
93	0x400711da	2.1104646
94	0x3e8815ad	0.26579037
95	0x3eb87733	0.36028442
96	0x3e702345	0.23450954
97	0x3e433676	0.19063744
98	0xbf7cd289	-0.9875875
99	0x3e576f88	0.2103864

bias f4 [100]
0	0x3d79a748	0.060950547
1	0x3e8aca04	0.2710725
2	0xbcae797f	-0.021298168
3	0x3dcabc2d	0.09899173
4	0x3e694505	0.22780235
5	0x3d672334	0.056430057
6	0x3d6ec8b8	0.05829689
7	0x3e097242	0.13422492
8	0x3df062e2	0.117376104
9	0x3d6f5965	0.058434863
10	0x3c7ea16f	0.015541418
11	0x3db0d983	0.08635237
12	0xbd60e726	-0.05490794
13	0xbce6b5dc	-0.02816289
14	0x3db90c17	0.09035509
15	0x3d6d7ca2	0.057980187
16	0xbcc2e2f9	-0.02378987
17	0xbced0d04	-0.02893687
18	0x3e131704	0.14364249
19	0xbdb0fec1	-0.086423405
20	0x3b4ad71d	0.0030950971
21	0x3d3637eb	0.04448692
22	0xbbde28bc	-0.0067797583
23	0x3d8b4ec1	0.068021305
24	0x3dcfa1d1	0.10138286
25	0x3bd8ceb6	0.0066164387
26	0xbb77e554	-0.00378259
27	0x3dc8805e	0.09790109
28	0x3cd27bd3	0.02569381
29	0x3d6b5bd2	0.057460614
30	0x3c49a03e	0.012306271
31	0xbd7ab63e	-0.061208956
32	0x3da48d0b	0.08034714
33	0x3d80c3f3	0.06287374
34	0x3cec24cb	0.028826138
35	0x3daefc5f	0.0854423
36	0x3db84092	0.08996691
37	0x3e1dcae6	0.15409431
38	0x3d8124cb	0.06305846
39	0x3e0e419a	0.13892213
40	0x3c78f23e	0.015194474
41	0x3e043a3d	0.12912841
42	0x3d82a52a	0.06379159
43	0xbdd427bc	-0.10359141
44	0x3d69ba90	0.057062685
45	0x3e14cfa2	0.1453233
46	0x3e643699	0.22286452
47	0x3e34d4e6	0.1765934
48	0x3d55ef43	0.05223013
49	0x3dab9b1e	0.08379196
50	0x3ccd0056	0.025024574
51	0xbbe3b028	-0.0069484897
52	0x3e001936	0.12509617
53	0x3e0e17fb	0.13876335
54	0x3d8299f5	0.06377021
55	0x3c87fda0	0.01660043
56	0xbd117f99	-0.035522077
57	0x3db1af31	0.08675993
58	0x3df0a22a	0.1174968
59	0x3dd83128	0.10556251
60	0x3e4f1898	0.20224226
61	0xbce3715c	-0.027764015
62	0xbe5edcc3	-0.21763901
63	0xbdb5b425	-0.088722505
64	0x3ba49640	0.005022794
65	0xbe1baa6c	-0.1520173
66	0x3cc186ea	0.023623902
67	0xbc88b6c0	-0.016688704
68	0x3d061ead	0.0327441
69	0x3e145891	0.1448691
70	0xbc8f37b6	-0.01748262
71	0x3d8e61df	0.06952261
72	0xbdb13e3a	-0.08654447
73	0x3d89cfaa	0.06729062
74	0xbd4d1cc6	-0.05007627
75	0xbc9d318e	-0.019188669
76	0x3da01b5e	0.0781772
77	0xbd2042c8	-0.039126188
78	0x3da397a5	0.07987908
79	0xbd3d5e6e	-0.046232633
80	0x3e274b84	0.163374
81	0x3d81bcb2	0.06334819
82	0xbce36e0c	-0.027762435
83	0x3d4dc766	0.05023899
84	0x3e4f288f	0.20230316
85	0x3d88cd39	0.06679768
86	0x3d326652	0.04355461
87	0x3df24fa5	0.11831597
88	0x3da98fef	0.08279406
89	0x3df72a03	0.1206856
90	0xbc192a54	-0.009348471
91	0x3dc977c9	0.098373
92	0x3cfbb915	0.030727902
93	0x3de81076	0.11331265
94	0x3e69a0b4	0.2281521
95	0x3e82bd10	0.25534868
96	0x3dd940d8	0.10608071
97	0x3d582a8c	0.05277495
98	0xbd81bcfe	-0.063348755
99	0xbc87036a	-0.01648112

running_mean f4 [100]
0	0x3ead1333	0.3380371
1	0x40966644	4.6999836
2	0x4014dabc	2.3258505
3	0x41537f0d	13.218518
4	0x40bfee0a	5.9978075
5	0x3cd6b723	0.026210373
6	0x4026f8ec	2.608943
7	0x3dabdbed	0.08391557
8	0x4144c1a8	12.297279
9	0x3ed82fe3	0.42224035
10	0x3f01fb27	0.50773853
11	0x3d8c76ae	0.06858574
12	0x4120441a	10.016626
13	0x414b04bb	12.688655
14	0x3f759f4f	0.9594621
15	0x40c05800	6.010742
16	0x3d0d08b7	0.03443214
17	0x00000004	6e-45
18	0x402cdc8b	2.7009609
19	0x3f7f049b	0.996164
20	0x3ea3c27c	0.31984317
21	0x3dffe267	0.12494355
22	0x3e1656b4	0.14681512
23	0x3e1289b6	0.14310345
24	0x4147285d	12.447354
25	0x3ee31b63	0.44356832
26	0x15e0ac48	9.074469e-26
27	0x3ddd4035	0.10803262
28	0x3d973f77	0.07385152
29	0x3e999666	0.29997557
30	0x414c3507	12.762946
31	0x00000004	6e-45
32	0x4154148f	13.255019
33	0x41464562	12.391939
34	0x3ea23650	0.31682062
35	0x3e14baee	0.14524433
36	0x00000004	6e-45
37	0x414896bb	12.536799
38	0x3ece28b2	0.40265423
39	0x413b1fc7	11.695258
40	0x3eb83bf3	0.35983238
41	0x41499ec4	12.601261
42	0x00000004	6e-45
43	0x4154f3bc	13.309505
44	0x3eb71eff	0.35765836
45	0x40a5c41c	5.180189
46	0x414db239	12.856011
47	0x4147f206	12.496588
48	0x414c5c3f	12.772521
49	0x41425bc6	12.147406
50	0x3e3160cf	0.17322086
51	0x3b3e5f85	0.0029048633
52	0x40cf7e7c	6.48419
53	0x41485548	12.520821
54	0x41496985	12.588262
55	0x3ec6bc53	0.38815555
56	0x3cab82fc	0.020936482
57	0x3e9c2b18	0.30501628
58	0x40a4b487	5.147037
59	0x3d411b58	0.047145218
60	0x4155c187	13.359748
61	0x3f606d42	0.87666714
62	0x00000004	6e-45
63	0x00000004	6e-45
64	0x3bca2782	0.0061692605
65	0x41614dbb	14.081477
66	0x3e9bcd8a	0.3043025
67	0x3f2647d1	0.64953333
68	0x3e16da0a	0.14731613
69	0x4141e9b4	12.119556
70	0x3f21db31	0.63225085
71	0x41512c88	13.073372
72	0x00000004	6e-45
73	0x414d48e5	12.8302965
74	0x3aa36b6f	0.0012467931
75	0x3f2b692e	0.66957366
76	0x414b9534	12.723927
77	0x3f30e988	0.6910634
78	0x00000004	6e-45
79	0x3d697c9a	0.057003595
80	0x00000004	6e-45
81	0x3cbd8a76	0.023137312
82	0x00000004	6e-45
83	0x3ea127b1	0.31475595
84	0x409e7da8	4.952839
85	0x3e5a62ca	0.21326748
86	0x3e4728ae	0.19449112
87	0x414fac6d	12.979596
88	0x3f4583c5	0.7715419
89	0x414d4cde	12.831266
90	0x3ec54299	0.38527372
91	0x414e7e8f	12.905898
92	0x00000004	6e-45
93	0x3c847386	0.016168367
94	0x40bd9f23	5.925676
95	0x40aeefcb	5.4667716
96	0x41471cdc	12.444546
97	0x00000004	6e-45
98	0x3cf41032	0.029792879
99	0x4149478a	12.579966

running_var f4 [100]
0	0x3f4d4550	0.8018389
1	0x41931b64	18.388374
2	0x40b7e553	5.7467437
3	0x414cbaf5	12.795644
4	0x418833e3	17.025335
5	0x3ce75c0b	0.028242132
6	0x40a761d4	5.230692
7	0x3ef81e12	0.48460442
8	0x4180424c	16.032372
9	0x3f64b70b	0.893418
10	0x3faf5ae1	1.3699609
11	0x3e8ba7a4	0.27276337
12	0x4184a987	16.582777
13	0x4137decc	11.491894
14	0x3fdcb1c5	1.7241751
15	0x415756a3	13.458652
16	0x3e5b36ad	0.21407576
17	0x00000004	6e-45
18	0x40b3a4bb	5.6138587
19	0x407223cb	3.7834346
20	0x3f5a8347	0.85356563
21	0x3e9ae602	0.30253607
22	0x3f151c1a	0.58246005
23	0x3ed87a80	0.4228096
24	0x41aefa41	21.872194
25	0x3f246e64	0.6423094
26	0x1434e5b7	9.132981e-27
27	0x3f160e9f	0.5861606
28	0x3ec2dc34	0.38058627
29	0x3f0b07ea	0.5430895
30	0x413bce79	11.737908
31	0x00000004	6e-45
32	0x412f0724	10.939243
33	0x41218dac	10.097088
34	0x3f53c880	0.82727814
35	0x3e7eb6ca	0.24874416
36	0x00000004	6e-45
37	0x417fe7be	15.994078
38	0x3f87ab49	1.0599147
39	0x413a744c	11.653393
40	0x3fa8d51e	1.3190038
41	0x416df6ef	14.8727865
42	0x00000004	6e-45
43	0x4160bd92	14.046282
44	0x3f846041	1.0341874
45	0x41525693	13.146136
46	0x413bc903	11.736575
47	0x4137c14d	11.484693
48	0x415d5eec	13.835674
49	0x41468971	12.408555
50	0x3f45da79	0.7728649
51	0x3bf8af83	0.007589282
52	0x41676e12	14.464373
53	0x4142b37e	12.168821
54	0x412d261b	10.821803
55	0x3f695a9a	0.9115387
56	0x3c938575	0.018007973
57	0x3f421564	0.7581389
58	0x4139b032	11.605516
59	0x3e5daa08	0.21646893
60	0x417b131b	15.692164
61	0x3fbfa2cd	1.4971558
62	0x00000004	6e-45
63	0x00000004	6e-45
64	0x3c229985	0.009924297
65	0x41703b55	15.014485
66	0x3f59e619	0.85116726
67	0x3fb0ca1b	1.3811678
68	0x3f11dc10	0.56976414
69	0x4120fbf1	10.061509
70	0x3fc41ac2	1.5320666
71	0x41237db1	10.218186
72	0x00000004	6e-45
73	0x41523e99	13.140283
74	0x3ae775dc	0.0017659026
75	0x3f884edb	1.0649065
76	0x41443c2a	12.2646885
77	0x3fa375fd	1.2770382
78	0x00000004	6e-45
79	0x3d542ba4	0.05179943
80	0x00000004	6e-45
81	0x3d59be8c	0.053160235
82	0x00000004	6e-45
83	0x3f4a2e64	0.78977036
84	0x412eb7f9	10.919915
85	0x3f4d3ae9	0.80168015
86	0x3f68c5af	0.9092664
87	0x411d5f45	9.835759
88	0x3fd8b019	1.6928741
89	0x4162ab7e	14.166868
90	0x3fb898e6	1.4421661
91	0x413875b2	11.528734
92	0x00000004	6e-45
93	0x3dc16140	0.09442377
94	0x4166fd4b	14.436839
95	0x41764583	15.391971
96	0x4183216a	16.391315
97	0x00000004	6e-45
98	0x3e36018c	0.17774028
99	0x413e7303	11.903079

weight f4 [50, 100]
0	0xc00782e7	-2.1173646
1	0xbd75870f	-0.059943255
2	0x3ec27907	0.37982962
3	0xbea54d47	-0.3228552
4	0xbbc2b083	-0.005941452
5	0x3d12e0af	0.035858806
6	0xbebb4414	-0.36575377
7	0xbed745b5	-0.4204537
8	0xbeb396f1	-0.35076097
9	0xc00d4686	-2.2074294
10	0xbffb0fca	-1.9614193
11	0xbc9e3bd1	-0.019315632
12	0x3ef184b6	0.47171563
13	0x3de960aa	0.1139539
14	0xbfc3635b	-1.5264696
15	0x3da141b6	0.078738615
16	0xbf2deb1b	-0.6793687
17	0x3f02144a	0.5081221
18	0xbeac53ce	-0.33657688
19	0xbdeae4d9	-0.114694305
20	0xbf63c686	-0.889748
21	0x3e8c559c	0.27409065
22	0xbf6cad53	-0.9245197
23	0x3df3f459	0.1191184
24	0xbe875d22	-0.26438242
25	0xbf47e865	-0.7808898
26	0x3f6aebf2	0.91766274
27	0xbf585370	-0.84502316
28	0x3f900f65	1.1254698
29	0x3e5dc175	0.21655829
30	0xbc7e005f	-0.015503018
31	0x3dc2f089	0.09518535
32	0xbd04ed4a	-0.03245286
33	0xbe6c6cd9	-0.23088397
34	0xc030a1a5	-2.759866
35	0xbecc9855	-0.3995997
36	0xbf12f08b	-0.5739829
37	0x3da6f6ad	0.081525184
38	0xbfb85284	-1.4400182
39	0xbde97b79	-0.11400504
40	0xbe6df5e1	-0.23238327
41	0x3e6d7d30	0.23192286
42	0x3ec456f4	0.3834759
43	0xbea2cf7c	-0.31798923
44	0xbfc006f8	-1.5002127
45	0xbea5ec46	-0.32406825
46	0xbe78a752	-0.24282578
47	0x3d97a311	0.07404149
48	0xbee244a7	-0.44193003
49	0xbe486858	-0.19571054
50	0xbf21cecc	-0.6320617
51	0x3ef48d2b	0.47763953
52	0xbcf1fda2	-0.029539887
53	0xbeeff51a	-0.46866685
54	0xbdeba9a3	-0.11506965
55	0xbffb25f0	-1.9620953
56	0x3ee6f232	0.45106655
57	0xc020ebb5	-2.5143864
58	0xbe61c2ed	-0.22047015
59	0xbf5ec08e	-0.87012565
60	0xbe840f41	-0.25792888
61	0xbfac5b16	-1.3465297
62	0x3f376734	0.7164185
63	0x3f0dd03a	0.55395854
64	0xbec9cc3c	-0.3941363
65	0x3efb825e	0.491229
66	0xc0122430	-2.2834587
67	0xbf08a3cd	-0.5337494
68	0xbf70db56	-0.9408468
69	0xbeafe1db	-0.34352002
70	0xbf908815	-1.1291529
71	0xbe50647c	-0.20350832
72	0x3f16f23c	0.5896337
73	0xbb7b86f4	-0.003838
74	0x3e8ed29f	0.27895066
75	0xbf91cd12	-1.1390707
76	0x3ed98a7c	0.42488468
77	0x3ec0b821	0.3764048
78	0x3eaf0ffd	0.34191886
79	0x3ea72b49	0.3265021
80	0xbf83a78f	-1.028551
81	0xbfbe712b	-1.4878286
82	0x3eb8e9e7	0.36115953
83	0xc02068bb	-2.5063922
84	0xbeb959d4	-0.36201346
85	0xbfe921fc	-1.8213496
86	0xbf3c38c0	-0.73524094
87	0x3e2db166	0.16962203
88	0x3da6d528	0.08146125
89	0xbe4b1a65	-0.19834287
90	0x3e0b5c87	0.13609515
91	0xbe14a905	-0.14517601
92	0x3e39baea	0.18137708
93	0xbf40cd73	-0.7531349
94	0xbc165c77	-0.009177319
95	0xbeebbb64	-0.46041405
96	0x3e0e7957	0.13913475
97	0x3d90de8a	0.07073696
98	0x3d762274	0.06009145
99	0x3e7076f2	0.23482874
100	0x3f211ee4	0.6293776
101	0xc015c7ac	-2.340312
102	0xbf825a02	-1.0183718
103	0xbf6b1e6f	-0.9184331
104	0xbfbb86e8	-1.4650545
105	0x3fa89a2c	1.317205
106	0xbe922071	-0.28540376
107	0x3eeb2749	0.4592841
108	0xbf8f5d4d	-1.1200348
109	0x3f610f1e	0.8791369
110	0x3e8591d3	0.26087818
111	0x3ec10a47	0.37703153
112	0x3f2277ec	0.63464236
113	0xbeb890d7	-0.36048004
114	0xbf447c88	-0.7675252
115	0xbfca6102	-1.5810854
116	0x3d0ffc28	0.035152584
117	0xbf90deb8	-1.1317968
118	0xbf7550ed	-0.9582661
119	0x3f6462d9	0.8921333
120	0x3ee2cf4b	0.44298777
121	0xbe4451f8	-0.19171894
122	0x3f0e7641	0.5564919
123	0xbe42a8bf	-0.19009684
124	0xbf77c35a	-0.9678246
125	0xbfe0e55f	-1.7569999
126	0xbf11563f	-0.56772226
127	0xbe490299	-0.19629897
128	0x3de1cc1d	0.1102526
129	0x3f1f6110	0.6225748
130	0xbf1656c7	-0.5872616
131	0xbfb62aee	-1.4231851
132	0xbed7b3d9	-0.421294
133	0xbf976cd1	-1.1830083
134	0x3de75bc8	0.11296803
135	0x3f1c15fc	0.60971045
136	0x3ec9ffcb	0.39452967
137	0xbf9b7ad1	-1.2146856
138	0x3f2c9e50	0.67429066
139	0xbf68132c	-0.90654254
140	0x3f545c07	0.8295292
141	0xbef4c41a	-0.47805864
142	0xbfc0ad4c	-1.5052886
143	0x3f381c9d	0.7191866
144	0xbe90b281	-0.28261188
145	0xbf94a4c2	-1.161278
146	0xbf8c2352	-1.0948279
147	0xbf7b3fe5	-0.9814437
148	0xbf4b9f8b	-0.7954032
149	0xbf97f3f5	-1.1871325
150	0x3f0cbe76	0.5497812
151	0xbf8a3779	-1.0798179
152	0xbf6e3805	-0.9305423
153	0xbfc32e6b	-1.5248541
154	0xbf19bd23	-0.60054225
155	0x3f28b6ee	0.6590413
156	0x3f8881a6	1.0664566
157	0xbe3da562	-0.1852012
158	0xbf808ebe	-1.0043561
159	0xbbb11cb6	-0.005405034
160	0xbfbf28f3	-1.4934372
161	0xbe4fefaa	-0.20306268
162	0xbd690284	-0.056887165
163	0x3ebada9f	0.3649492
164	0x3f6e64db	0.93122643
165	0x3f819794	1.0124383
166	0x3f3ed657	0.74545807
167	0x3f835dab	1.026296
168	0x3f924afb	1.1429132
169	0xbf8c4ad8	-1.096034
170	0xbedb3f39	-0.42821673
171	0xbf9e30a3	-1.2358593
172	0xbf23511a	-0.63795626
173	0xbfc4ac2f	-1.5365046
174	0xbf9f3243	-1.2437214
175	0x3d87636a	0.066107586
176	0xbf763c05	-0.9618533
177	0xbe887773	-0.26653633
178	0x3f852193	1.0400871
179	0x3f512e7c	0.81711555
180	0x3f1ea3be	0.619686
181	0xbe2546fd	-0.16140361
182	0xbfc83939	-1.5642463
183	0xbe2c22c8	-0.16810143
184	0xbf86a64d	-1.0519501
185	0x3f6b8b17	0.9200911
186	0x3f0e90e5	0.5568984
187	0xbfcd380c	-1.6032729
188	0xbfa5f2bd	-1.2964703
189	0xbf63e144	-0.89015603
190	0xbf9957e3	-1.1979946
191	0xbf97e237	-1.186591
192	0xbf54dd96	-0.83150613
193	0xbf0d8f39	-0.55296665
194	0xbfa4036f	-1.2813548
195	0xc02a315f	-2.6592634
196	0xc007f22f	-2.1241567
197	0x3f485161	0.78249174
198	0x3e92bb8d	0.28658715
199	0xbf393148	-0.7234082
200	0xbe15c66f	-0.14626478
201	0x3e43e0cf	0.19128726
202	0x3f249820	0.64294624
203	0x3e82ae41	0.2552357
204	0x3f0e1b21	0.55510145
205	0x3f6c83ba	0.923885
206	0x3e3e0071	0.18554856
207	0xbd2f39cc	-0.04277973
208	0xbd0e4c1c	-0.034740552
209	0xbf68776a	-0.9080721
210	0xbec8d8f1	-0.39228013
211	0x3f15d3f2	0.5852653
212	0x3f915032	1.1352599
213	0x3e8fee36	0.28111428
214	0xbf91c0ca	-1.138696
215	0x3ed85bdb	0.4225758
216	0xbfa9f4eb	-1.3277868
217	0x3eafcca3	0.34335813
218	0xbea769cc	-0.32697904
219	0xbe1c62c3	-0.1527205
220	0xbf8566e2	-1.0422022
221	0x3f30b73f	0.6902961
222	0xbf0a44ba	-0.5401112
223	0x3dfabe75	0.12243358
224	0x3df4aa80	0.11946583
225	0x3efa764d	0.4891838
226	0x3f3609ad	0.71108514
227	0x3cc3cd10	0.023901492
228	0xbe014630	-0.1262443
229	0x3e2dd113	0.16974287
230	0x3f37c0b7	0.71778435
231	0x3ec24a31	0.3794723
232	0x3e0ca5c7	0.13735114
233	0x3f203bd3	0.62591285
234	0xbf7f701e	-0.9978045
235	0xbeba2af5	-0.363609
236	0xbf3c1f0c	-0.73484874
237	0xbee1dd12	-0.44113976
238	0xbf68ea46	-0.9098247
239	0x3ecba376	0.39773148
240	0xbf78215d	-0.9692591
241	0xbd8872ae	-0.066624984
242	0x3f7fc390	0.9990778
243	0xbe6f54f1	-0.23372246
244	0xbf97b0fa	-1.1850884
245	0x3da4636f	0.08026778
246	0x3e53add7	0.20671783
247	0x3ed7a144	0.42115223
248	0x3e474102	0.19458392
249	0xbe76b25d	-0.24091478
250	0xbf29b28b	-0.6628806
251	0x3f947931	1.1599485
252	0x3f1016ad	0.562846
253	0xbd0152a1	-0.03157294
254	0x3e8eb9ae	0.27876037
255	0xbf203871	-0.6258612

bias f4 [50]
0	0x40bd25a3	5.9108443
1	0x40b2feaf	5.5935893
2	0x40e4d220	7.15065
3	0x40caeda4	6.341509
4	0x413de419	11.868188
5	0x41084b8e	8.518446
6	0x410fc4f6	8.985586
7	0x4103e9ec	8.24461
8	0x40bbf8e9	5.8741345
9	0x40e22291	7.0667195
10	0x40c14426	6.039569
11	0x40fcfdff	7.9060054
12	0x41233cc4	10.202335
13	0x40dc1f20	6.8787994
14	0x40e0ceda	7.0252504
15	0x40e81938	7.2530785
16	0x412166b4	10.087574
17	0x40b05c8c	5.511297
18	0x412e030c	10.875744
19	0x40acde79	5.4021573
20	0x410ebea4	8.921543
21	0x410cde86	8.804327
22	0x410ae05e	8.679777
23	0x40cf693c	6.481596
24	0x4133f9d9	11.248498
25	0x411d4b04	9.830814
26	0x412dcfb5	10.86321
27	0x4064abde	3.57299
28	0x41365d3e	11.397764
29	0x40c5fc15	6.1870217
30	0x40bc825d	5.8909135
31	0x41340d14	11.253193
32	0x40fe8cea	7.9547014
33	0x40d79809	6.737309
34	0x41205889	10.021615
35	0x40ccc0c3	6.3985305
36	0x4123be9b	10.234035
37	0x412947ae	10.58
38	0x4109e253	8.617755
39	0x40e5f5a5	7.186236
40	0x40c43711	6.131722
41	0x412ce49f	10.805816
42	0x40d485ba	6.641324
43	0x40485054	3.1299028
44	0x410a4090	8.640762
45	0x40f3cf8a	7.6190844
46	0x413cd698	11.802391
47	0x410bfdd5	8.749471
48	0x40783c56	3.8786826
49	0x40d5cb19	6.681042

weight f4 [50]
0	0x42067ed2	33.623848
1	0x4205025f	33.252316
2	0x42072743	33.78834
3	0x420628aa	33.53971
4	0x4206b912	33.680733
5	0x42037133	32.860546
6	0x4202e8b4	32.72725
7	0x4204bb51	33.182926
8	0x4204c701	33.19434
9	0x4208d631	34.20917
10	0x4206e0cc	33.71953
11	0x4206fd53	33.747387
12	0x4204046b	33.004314
13	0x42067a0b	33.619183
14	0x4205ea5d	33.47887
15	0x42065aff	33.588863
16	0x420671b9	33.611057
17	0x4204fcd0	33.246887
18	0x420684cf	33.629696
19	0x42076d5b	33.856792
20	0x4204846a	33.12931
21	0x420548b8	33.321014
22	0x421103c5	36.25368
23	0x42044e6b	33.07658
24	0x42064572	33.567818
25	0x42065760	33.585327
26	0x42066837	33.601772
27	0x42059eb4	33.404984
28	0x4205d41f	33.45715
29	0x42051631	33.27167
30	0x42080473	34.004345
31	0x4206a2c8	33.658966
32	0x42068aea	33.63566
33	0x4207a14b	33.907513
34	0x420485cb	33.130657
35	0x42049dd2	33.15412
36	0x42054e2a	33.326332
37	0x42055d16	33.340904
38	0x4205422f	33.314632
39	0x4204c55f	33.192745
40	0x4205ddab	33.466473
41	0x42050bca	33.261513
42	0x4206ae36	33.670128
43	0x4206da2d	33.713062
44	0x420590c5	33.391376
45	0x42047c80	33.121582
46	0x4208b2af	34.174496
47	0x42055f44	33.343033
48	0x42059c70	33.40277
49	0x42049077	33.14108

bias f4 [50]
0	0xc27332f4	-60.79976
1	0x42730163	60.751354
2	0xc273b0b8	-60.922577
3	0x42733541	60.802006
4	0xc272d6c2	-60.709724
5	0x42739182	60.892097
6	0xc2730964	-60.75917
7	0x42739f03	60.905285
8	0x427307c6	60.75759
9	0xc273e94e	-60.977837
10	0x4273058d	60.75542
11	0x4273d2aa	60.955727
12	0xc2731563	-60.770885
13	0x42738e29	60.88883
14	0x427369f1	60.85346
15	0x42737dea	60.872963
16	0xc273ae2a	-60.920082
17	0x4273f517	60.989346
18	0xc27341eb	-60.814373
19	0x42735222	60.830208
20	0xc273d718	-60.960052
21	0xc2733973	-60.806103
22	0xc273b468	-60.926178
23	0x42739c46	60.90261
24	0xc2734b03	-60.823254
25	0xc273c826	-60.945457
26	0xc273cb3d	-60.948475
27	0x42731295	60.768147
28	0xc273407f	-60.812984
29	0x42733918	60.805756
30	0xc27327da	-60.788918
31	0xc272e892	-60.72712
32	0xc273cbc3	-60.948986
33	0xc273907a	-60.89109
34	0xc272c090	-60.68805
35	0x4273ebe7	60.980373
36	0xc273c6f8	-60.944305
37	0xc2732247	-60.783474
38	0xc272e225	-60.720844
39	0x42740c3f	61.01196
40	0x42738c3d	60.88695
41	0xc2733c9d	-60.809193
42	0x4273e457	60.97299
43	0x42730dba	60.763405
44	0xc2731d12	-60.77839
45	0xc2731d27	-60.77847
46	0xc27379a2	-60.868782
47	0xc2737f2e	-60.8742
48	0x42736b4a	60.854774
49	0x42744788	61.069855

running_mean f4 [50]
0	0x40a5ed2b	5.185201
1	0x409841b7	4.758022
2	0x40f1b5da	7.5534487
3	0x40a98aa0	5.298172
4	0x413cff0b	11.812266
5	0x40f44f77	7.6347003
6	0x4114af91	9.292863
7	0x40f5faf2	7.686883
8	0x40a7b430	5.2407455
9	0x4104a081	8.289186
10	0x40beb9ba	5.9601717
11	0x40f5ed73	7.6852355
12	0x4137d374	11.489124
13	0x40c73e21	6.226334
14	0x40d290ee	6.5801916
15	0x40dc4ae8	6.884144
16	0x4128b11d	10.543241
17	0x40a3ec46	5.122592
18	0x413f4133	11.953418
19	0x409acea3	4.837724
20	0x4110d93d	9.053037
21	0x41187655	9.52889
22	0x410aee05	8.68311
23	0x40b10e48	5.5329933
24	0x4146dd0b	12.428966
25	0x411e0b65	9.877782
26	0x4131f1f5	11.121572
27	0x406b8260	3.6798325
28	0x41445dd0	12.272903
29	0x40ab5095	5.3535867
30	0x40a89060	5.267624
31	0x4142ea3b	12.182185
32	0x410339ee	8.201643
33	0x40caa34a	6.3324327
34	0x412dcfaf	10.863204
35	0x40ac3aac	5.382162
36	0x413228a1	11.134919
37	0x413a0f87	11.628791
38	0x41129971	9.162461
39	0x40bdaeac	5.9275723
40	0x40af21ef	5.4728923
41	0x41365e54	11.398029
42	0x40b0f55c	5.529951
43	0x4052365e	3.2845683
44	0x410cd217	8.801291
45	0x40fa5166	7.8224363
46	0x41494361	12.57895
47	0x410a1e1f	8.632354
48	0x407720ea	3.861384
49	0x40b01fad	5.5038667

running_var f4 [50]
0	0x40effeea	7.4998674
1	0x42636410	56.847717
2	0x42153a35	37.306843
3	0x41df8af3	27.942846
4	0x40113186	2.2686477
5	0x420350e4	32.828995
6	0x40c77324	6.2328053
7	0x421cf208	39.23636
8	0x42702eae	60.045586
9	0x425c4570	55.06781
10	0x41ea4f64	29.288765
11	0x42448407	49.128933
12	0x40a56772	5.1688776
13	0x42091cec	34.278244
14	0x4226de62	41.71717
15	0x42107879	36.11765
16	0x40a5e284	5.183901
17	0x4282dbbd	65.42918
18	0x4036a528	2.8538303
19	0x42753e36	61.310753
20	0x409219a7	4.5656314
21	0x40bc20e8	5.879017
22	0x43233d52	163.23953
23	0x427951d9	62.32993
24	0x40c7844e	6.2349005
25	0x40beaeb9	5.9588284
26	0x40e760e7	7.230579
27	0x42287655	42.11556
28	0x401edbb1	2.482159
29	0x426ab80d	58.679737
30	0x40eef261	7.4670873
31	0x403faacf	2.9948003
32	0x40a5072a	5.1571245
33	0x4105a6ae	8.353193
34	0x406b51c0	3.6768646
35	0x42444376	49.06588
36	0x4089b00d	4.3027406
37	0x40665d35	3.599439
38	0x40db1321	6.846085
39	0x424cd55d	51.208363
40	0x428500b2	66.50136
41	0x40166d68	2.3504276
42	0x424d36ab	51.303387
43	0x422cae7e	43.170403
44	0x40cf0ab8	6.4700584
45	0x40f1967e	7.5496206
46	0x3ffffa01	1.999817
47	0x40a73359	5.225018
48	0x42421674	48.521927
49	0x4248572f	50.08514

weight f4 [1, 50]
0	0xc268a23c	-58.158432
1	0x4268623f	58.095943
2	0xc2681000	-58.015625
3	0x4268074e	58.007133
4	0xc268be57	-58.18588
5	0x4267d77e	57.96044
6	0xc2687ccc	-58.121872
7	0x42679a75	57.900837
8	0x42686045	58.094013
9	0xc267ed93	-57.982006
10	0x42688f27	58.139797
11	0x4267d58d	57.958546
12	0xc2688adb	-58.1356
13	0x4267d1e0	57.954956
14	0x4268123a	58.0178
15	0x4267f6a4	57.99086
16	0xc2681f45	-58.030537
17	0x4267a06e	57.90667
18	0xc2688feb	-58.140545
19	0x42685160	58.079468
20	0xc267da93	-57.96345
21	0xc2689bb4	-58.152054
22	0xc2682394	-58.034744
23	0x4267a082	57.906746
24	0xc2687f79	-58.124485
25	0xc267f0d4	-57.985184
26	0xc267e927	-57.977688
27	0x4268437e	58.06591
28	0xc2685bd6	-58.089684
29	0x42684380	58.065918
30	0xc268dcfa	-58.215797
31	0xc26897be	-58.148186
32	0xc2682fe9	-58.046787
33	0xc26870c1	-58.11011
34	0xc268af04	-58.170914
35	0x42678e29	57.88883
36	0xc2681eba	-58.030006
37	0xc2689c6e	-58.152763
38	0xc268efc9	-58.234165
39	0x426796e1	57.897343
40	0x4267de39	57.967014
41	0xc2685fb7	-58.09347
42	0x4267bfe1	57.93738
43	0x426874aa	58.11393
44	0xc268650b	-58.098675
45	0xc2685c09	-58.089878
46	0xc2686edd	-58.108265
47	0xc26835fe	-58.052727
48	0x42680f1c	58.014755
49	0x426786e3	57.881725
